…
  0%|          | 0/2 [00:00<?, ?ba/s] 50%|█████     | 1/2 [00:00<00:00,  5.74ba/s]100%|██████████| 2/2 [00:00<00:00, 10.30ba/s]
tokenized dataset: DatasetDict({
    train: Dataset({
        features: ['labels', 'input_ids', 'token_type_ids', 'attention_mask'],
        num_rows: 8551
    })
    validation: Dataset({
        features: ['labels', 'input_ids', 'token_type_ids', 'attention_mask'],
        num_rows: 1043
    })
    test: Dataset({
        features: ['labels', 'input_ids', 'token_type_ids', 'attention_mask'],
        num_rows: 1063
    })
})
Evaluating Model with model: BertForSequenceClassification(
  (bert): BertModel(
    (embeddings): BertEmbeddings(
      (word_embeddings): Embedding(30522, 768, padding_idx=0)
      (position_embeddings): Embedding(512, 768)
      (token_type_embeddings): Embedding(2, 768)
      (LayerNorm): LayerNorm((768,), eps=1e-12, elementwise_affine=True)
      (dropout): Dropout(p=0.1, inplace=False)
    )
    (encoder): BertEncoder(
      (layer): ModuleList(
        (0-11): 12 x BertLayer(
          (attention): BertAttention(
            (self): BertSelfAttention(
              (query): Linear(in_features=768, out_features=768, bias=True)
              (key): Linear(in_features=768, out_features=768, bias=True)
              (value): Linear(in_features=768, out_features=768, bias=True)
              (dropout): Dropout(p=0.1, inplace=False)
            )
            (output): BertSelfOutput(
              (dense): Linear(in_features=768, out_features=768, bias=True)
              (LayerNorm): LayerNorm((768,), eps=1e-12, elementwise_affine=True)
              (dropout): Dropout(p=0.1, inplace=False)
            )
          )
          (intermediate): BertIntermediate(
            (dense): Linear(in_features=768, out_features=3072, bias=True)
            (intermediate_act_fn): GELUActivation()
          )
          (output): BertOutput(
            (dense): Linear(in_features=3072, out_features=768, bias=True)
            (LayerNorm): LayerNorm((768,), eps=1e-12, elementwise_affine=True)
            (dropout): Dropout(p=0.1, inplace=False)
          )
        )
      )
    )
    (pooler): BertPooler(
      (dense): Linear(in_features=768, out_features=768, bias=True)
      (activation): Tanh()
    )
  )
  (dropout): Dropout(p=0.1, inplace=False)
  (classifier): Linear(in_features=768, out_features=2, bias=True)
) and dataset: <torch.utils.data.dataloader.DataLoader object at 0x7f019f3d9700>
######### 
device
#########
 cpu
  0%|          | 0/3207 [00:00<?, ?it/s]  0%|          | 1/3207 [00:03<3:28:30,  3.90s/it]  0%|          | 2/3207 [00:07<3:18:00,  3.71s/it]  0%|          | 3/3207 [00:10<3:09:27,  3.55s/it]  0%|          | 4/3207 [00:14<3:02:49,  3.42s/
…
